Tkwant/python/momentumAndWeight.npz (npz, 7586 bytes, 2 tensors)

weight_vec f8 [294, 2]
0	0x0000000000000000	0.0
1	0x3f2ff7317d4fe263	0.0002438781654346022
2	0x3f56e443400ff92d	0.001397195505205294
3	0x3f465b94762afb1a	0.0006823038969157897
4	0x0000000000000000	0.0
5	0x3f52fc3511b4cbf1	0.001158763718944963
6	0x3f6a485d49519924	0.00320833415985357
7	0x3f5a64a323020f78	0.0016109078533483572
8	0x0000000000000000	0.0
9	0x3f60ad33b4cfea08	0.0020357141388533985
10	0x3f7409930729f7fd	0.004891943290770581
11	0x3f640244ad60d3c1	0.0024424878456792147
12	0x0000000000000000	0.0
13	0x3f672130fee8a944	0.002823444075393729
14	0x3f79dd01d3d0517f	0.00631428445651172
15	0x3f69e0bcd7f90929	0.003158921084634465
16	0x0000000000000000	0.0
17	0x3f6c27e95e3b44a3	0.0034370000811142095
18	0x3f7deb0377fab1c4	0.007304204511154603
19	0x3f6de9d22cb5167a	0.0036515336011316265
20	0x0000000000000000	0.0
21	0x3f6f0daa1137698d	0.003790695345498202
22	0x3f7f7a3b1c3b141e	0.007684927844541027
23	0x3f6f78f9e734551d	0.0038418656273601207
24	0x0000000000000000	0.0
25	0x3f6f229157c68bd2	0.003800662873076879
26	0x3f7dff6d4e651f04	0.007323672273123586
27	0x3f6e03c0fd42eb5c	0.003663899357062501
28	0x0000000000000000	0.0
29	0x3f6c0d565aed173d	0.003424328482114185
30	0x3f794e882d0da550	0.006178409516772135
31	0x3f69454df7893c80	0.003084804801154528
32	0x0000000000000000	0.0
33	0x3f65d29880cb051b	0.002663896424878088
34	0x3f71b6e02b2bafdc	0.004324794443828463
35	0x3f61c9ee6f450bbb	0.0021714837004380406
36	0x0000000000000000	0.0
37	0x3f5a305d16200c24	0.0015984448477872693
38	0x3f600963d24a5e2b	0.001957602466358362
39	0x3f4f534640cfdb2b	0.0009559720070900548
40	0x0000000000000000	0.0
41	0x3f369169d3c5e07a	0.0003443606726913972
42	0x0000000000000000	0.0
43	0x3f2ff7317d4fe263	0.0002438781654346022
44	0x3f56e443400ff92d	0.001397195505205294
45	0x3f465b94762afb1a	0.0006823038969157897
46	0x0000000000000000	0.0
47	0x3f52fc3511b4cbf1	0.001158763718944963
48	0x3f6a485d49519924	0.00320833415985357
49	0x3f5a64a323020f78	0.0016109078533483572
50	0x0000000000000000	0.0
51	0x3f60ad33b4cfea08	0.0020357141388533985
52	0x3f7409930729f7fd	0.004891943290770581
53	0x3f640244ad60d3c1	0.0024424878456792147
54	0x0000000000000000	0.0
55	0x3f672130fee8a944	0.002823444075393729
56	0x3f79dd01d3d0517f	0.00631428445651172
57	0x3f69e0bcd7f90929	0.003158921084634465
58	0x0000000000000000	0.0
59	0x3f6c27e95e3b44a3	0.0034370000811142095
60	0x3f7deb0377fab1c4	0.007304204511154603
61	0x3f6de9d22cb5167a	0.0036515336011316265
62	0x0000000000000000	0.0
63	0x3f6f0daa1137698d	0.003790695345498202
64	0x3f7f7a3b1c3b141e	0.007684927844541027
65	0x3f6f78f9e734551d	0.0038418656273601207
66	0x0000000000000000	0.0
67	0x3f6f229157c68bd2	0.003800662873076879
68	0x3f7dff6d4e651f04	0.007323672273123586
69	0x3f6e03c0fd42eb5c	0.003663899357062501
70	0x0000000000000000	0.0
71	0x3f6c0d565aed173d	0.003424328482114185
72	0x3f794e882d0da550	0.006178409516772135
73	0x3f69454df7893c80	0.003084804801154528
74	0x0000000000000000	0.0
75	0x3f65d29880cb051b	0.002663896424878088
76	0x3f71b6e02b2bafdc	0.004324794443828463
77	0x3f61c9ee6f450bbb	0.0021714837004380406
78	0x0000000000000000	0.0
79	0x3f5a305d16200c24	0.0015984448477872693
80	0x3f600963d24a5e2b	0.001957602466358362
81	0x3f4f534640cfdb2b	0.0009559720070900548
82	0x0000000000000000	0.0
83	0x3f369169d3c5e07a	0.0003443606726913972
84	0x0000000000000000	0.0
85	0x3f269657e97f4d65	0.00017232726236092035
86	0x3f501e838f87bfe8	0.0009838375827904092
87	0x3f3f7c89799ead68	0.0004804454453004232
88	0x0000000000000000	0.0
89	0x3f4a8d5e155a7893	0.0008103093520792796
90	0x3f6231bdb738e24c	0.002220984018802141
91	0x3f5245502698e7db	0.0011151583406800922
92	0x0000000000000000	0.0
93	0x3f56cbfa86d54a18	0.0013914057302214563
94	0x3f6afcf750053b3d	0.003294451744444342
95	0x3f5af320287f1469	0.0016448797268691312
96	0x0000000000000000	0.0
97	0x3f5ea5852f639055	0.0018705177913540723
98	0x3f70d6b5b8089f59	0.004111013259297491
99	0x3f60d9237f41067e	0.00205666478180505
100	0x0000000000000000	0.0
101	0x3f6201d817ff58dd	0.002198144968114864
102	0x3f72cc0a7957f999	0.0045891198292324015
103	0x3f62cb4aa99551b9	0.002294202637737022
104	0x0000000000000000	0.0
105	0x3f632d0b703f627a	0.0023408149154245357
106	0x3f731efdaf9593c1	0.004668227158025341
107	0x3f631e3a915f5709	0.0023337501433883284
108	0x0000000000000000	0.0
109	0x3f62a054fc9459a1	0.002273717870262718
110	0x3f71b2b548ecd0db	0.004320819992063653
111	0x3f61b542cbb2b6aa	0.0021616272548133546
112	0x0000000000000000	0.0
113	0x3f6058c2b9e09018	0.001995449375515445
114	0x3f6d2e1249ae4359	0.0035620076354877903
115	0x3f5d236e8ae7db57	0.001778467132337721
116	0x0000000000000000	0.0
117	0x3f58f020f6d5d046	0.0015220949092880228
118	0x3f6418fefe266406	0.0024533253028491435
119	0x3f542e9d942c02c7	0.0012318171363291817
120	0x0000000000000000	0.0
121	0x3f4d8d1dfbe9ccc8	0.0009018322378565808
122	0x3f5207e1001c4d78	0.0011005112905352037
123	0x3f419c383fc0a1e7	0.0005374216702920793
124	0x0000000000000000	0.0
125	0x3f29545d266987e6	0.0001932491024546061
126	0x0000000000000000	0.0
127	0x3f269657e97f4d65	0.00017232726236092035
128	0x3f501e838f87bfe8	0.0009838375827904092
129	0x3f3f7c89799ead68	0.0004804454453004232
130	0x0000000000000000	0.0
131	0x3f4a8d5e155a7893	0.0008103093520792796
132	0x3f6231bdb738e24c	0.002220984018802141
133	0x3f5245502698e7db	0.0011151583406800922
134	0x0000000000000000	0.0
135	0x3f56cbfa86d54a18	0.0013914057302214563
136	0x3f6afcf750053b3d	0.003294451744444342
137	0x3f5af320287f1469	0.0016448797268691312
138	0x0000000000000000	0.0
139	0x3f5ea5852f639055	0.0018705177913540723
140	0x3f70d6b5b8089f59	0.004111013259297491
141	0x3f60d9237f41067e	0.00205666478180505
142	0x0000000000000000	0.0
143	0x3f6201d817ff58dd	0.002198144968114864
144	0x3f72cc0a7957f999	0.0045891198292324015
145	0x3f62cb4aa99551b9	0.002294202637737022
146	0x0000000000000000	0.0
147	0x3f632d0b703f627a	0.0023408149154245357
148	0x3f731efdaf9593c1	0.004668227158025341
149	0x3f631e3a915f5709	0.0023337501433883284
150	0x0000000000000000	0.0
151	0x3f62a054fc9459a1	0.002273717870262718
152	0x3f71b2b548ecd0db	0.004320819992063653
153	0x3f61b542cbb2b6aa	0.0021616272548133546
154	0x0000000000000000	0.0
155	0x3f6058c2b9e09018	0.001995449375515445
156	0x3f6d2e1249ae4359	0.0035620076354877903
157	0x3f5d236e8ae7db57	0.001778467132337721
158	0x0000000000000000	0.0
159	0x3f58f020f6d5d046	0.0015220949092880228
160	0x3f6418fefe266406	0.0024533253028491435
161	0x3f542e9d942c02c7	0.0012318171363291817
162	0x0000000000000000	0.0
163	0x3f4d8d1dfbe9ccc8	0.0009018322378565808
164	0x3f5207e1001c4d78	0.0011005112905352037
165	0x3f419c383fc0a1e7	0.0005374216702920793
166	0x0000000000000000	0.0
167	0x3f29545d266987e6	0.0001932491024546061
168	0x0000000000000000	0.0
169	0x3f19567c64eca2f6	9.66561722007922e-05
170	0x3f4210f81d024282	0.0005513392916488143
171	0x3f31a51915cb1136	0.00026924002103735926
172	0x0000000000000000	0.0
173	0x3f3db51ebc49ec27	0.0004533004796837846
174	0x3f544dce1ea04303	0.001239253319458012
175	0x3f4463a58378bdd8	0.0006222303554234655
176	0x0000000000000000	0.0
177	0x3f495b384dd456bc	0.0007738137170771524
178	0x3f5de6b74b7a21c9	0.0018250265110585243
179	0x3f4ddbd0396d74ac	0.000911213562044507
180	0x0000000000000000	0.0
181	0x3f50e70db3ebf237	0.0010316499535171339
182	0x3f627c454c8b9da6	0.0022565225120733832
183	0x3f527eefe21f14fe	0.0011288969621870422
184	0x0000000000000000	0.0
185	0x3f53ab47431f07ca	0.0012005039138647138
186	0x3f646d36b8ce8baa	0.002493483427728778
187	0x3f546c6648115c53	0.0012465475886267632
188	0x0000000000000000	0.0
189	0x3f54bb61ab127daf	0.0012653783599388781
190	0x3f6491da9cdb524f	0.0025109548358648657
191	0x3f549108b63a6d4a	0.0012552819324927627
192	0x0000000000000000	0.0
193	0x3f53f1497f6c83c3	0.0012171952964268185
194	0x3f62dd74a521d915	0.002302863905295225
195	0x3f52e02d3f50353d	0.0011520807140670962
196	0x0000000000000000	0.0
197	0x3f515acd14a97f81	0.0010592463246652253
198	0x3f5ede9f55c434a1	0.0018841320043663584
199	0x3f4ed35ddf64807b	0.0009407242166936802
200	0x0000000000000000	0.0
201	0x3f4a4d6bf982b3fd	0.0008026864261602148
202	0x3f55251dc26a2bc5	0.0012905874843080905
203	0x3f453bdcc4acf2ba	0.0006480052919424974
204	0x0000000000000000	0.0
205	0x3f3f086623cb3be1	0.00047352307937570225
206	0x3f42e93c5ed0c28c	0.0005771202828609031
207	0x3f3278520b8e52c3	0.0002818298631209021
208	0x0000000000000000	0.0
209	0x3f1a8cbd39c6b9d5	0.00010127930585810488
210	0x0000000000000000	0.0
211	0x3f19567c64eca2f6	9.66561722007922e-05
212	0x3f4210f81d024282	0.0005513392916488143
213	0x3f31a51915cb1136	0.00026924002103735926
214	0x0000000000000000	0.0
215	0x3f3db51ebc49ec27	0.0004533004796837846
216	0x3f544dce1ea04303	0.001239253319458012
217	0x3f4463a58378bdd8	0.0006222303554234655
218	0x0000000000000000	0.0
219	0x3f495b384dd456bc	0.0007738137170771524
220	0x3f5de6b74b7a21c9	0.0018250265110585243
221	0x3f4ddbd0396d74ac	0.000911213562044507
222	0x0000000000000000	0.0
223	0x3f50e70db3ebf237	0.0010316499535171339
224	0x3f627c454c8b9da6	0.0022565225120733832
225	0x3f527eefe21f14fe	0.0011288969621870422
226	0x0000000000000000	0.0
227	0x3f53ab47431f07ca	0.0012005039138647138
228	0x3f646d36b8ce8baa	0.002493483427728778
229	0x3f546c6648115c53	0.0012465475886267632
230	0x0000000000000000	0.0
231	0x3f54bb61ab127daf	0.0012653783599388781
232	0x3f6491da9cdb524f	0.0025109548358648657
233	0x3f549108b63a6d4a	0.0012552819324927627
234	0x0000000000000000	0.0
235	0x3f53f1497f6c83c3	0.0012171952964268185
236	0x3f62dd74a521d915	0.002302863905295225
237	0x3f52e02d3f50353d	0.0011520807140670962
238	0x0000000000000000	0.0
239	0x3f515acd14a97f81	0.0010592463246652253
240	0x3f5ede9f55c434a1	0.0018841320043663584
241	0x3f4ed35ddf64807b	0.0009407242166936802
242	0x0000000000000000	0.0
243	0x3f4a4d6bf982b3fd	0.0008026864261602148
244	0x3f55251dc26a2bc5	0.0012905874843080905
245	0x3f453bdcc4acf2ba	0.0006480052919424974
246	0x0000000000000000	0.0
247	0x3f3f086623cb3be1	0.00047352307937570225
248	0x3f42e93c5ed0c28c	0.0005771202828609031
249	0x3f3278520b8e52c3	0.0002818298631209021
250	0x0000000000000000	0.0
251	0x3f1a8cbd39c6b9d5	0.00010127930585810488
252	0x0000000000000000	0.0
253	0x3f1a8e07b7861bdc	0.00010129854297789793
254	0x3f42eec3725fb049	0.0005777792291588114
255	0x3f327db81de558de	0.0002821516517505072

momentum_vec f8 [294]
0	0x3fe0c5fa66601348	0.5241672515408959
1	0x3fe0dd4d4f24b4c0	0.5270144029397201
2	0x3fe10c3724e483f7	0.5327411385115955
3	0x3fe152048f179d11	0.5412619395037003
4	0x3fe1ac5b61bfd1e2	0.5522896680036491
5	0x3fe21919999e9aad	0.5655639648801604
6	0x3fe296309fcffc10	0.5808337327324598
7	0x3fe320e890486bbc	0.5977671449685356
8	0x3fe3b5f70f44c5f5	0.6159625337806448
9	0x3fe452024dae02e0	0.6350108639890912
10	0x3fe4f1a6c629b706	0.6544984693880174
11	0x3fe5914b3ea56b2c	0.6739860747869435
12	0x3fe62d567d0ea817	0.6930344049953899
13	0x3fe6c264fc0b0250	0.7112297938074992
14	0x3fe74d1cec8371fc	0.728163206043575
15	0x3fe7ca33f2b4d35f	0.7434329738958744
16	0x3fe836f22a939c2a	0.7567072707723856
17	0x3fe89148fd3bd0fb	0.7677349992723345
18	0x3fe8d716676eea15	0.7762558002644392
19	0x3fe906003d2eb94c	0.7819825358363146
20	0x3fe91d5325f35ac4	0.7848296872351388
21	0xbfe0c5fa66601348	-0.5241672515408959
22	0xbfe0dd4d4f24b4c0	-0.5270144029397201
23	0xbfe10c3724e483f7	-0.5327411385115955
24	0xbfe152048f179d11	-0.5412619395037003
25	0xbfe1ac5b61bfd1e2	-0.5522896680036491
26	0xbfe21919999e9aad	-0.5655639648801604
27	0xbfe296309fcffc10	-0.5808337327324598
28	0xbfe320e890486bbc	-0.5977671449685356
29	0xbfe3b5f70f44c5f5	-0.6159625337806448
30	0xbfe452024dae02e0	-0.6350108639890912
31	0xbfe4f1a6c629b706	-0.6544984693880174
32	0xbfe5914b3ea56b2c	-0.6739860747869435
33	0xbfe62d567d0ea817	-0.6930344049953899
34	0xbfe6c264fc0b0250	-0.7112297938074992
35	0xbfe74d1cec8371fc	-0.728163206043575
36	0xbfe7ca33f2b4d35f	-0.7434329738958744
37	0xbfe836f22a939c2a	-0.7567072707723856
38	0xbfe89148fd3bd0fb	-0.7677349992723345
39	0xbfe8d716676eea15	-0.7762558002644392
40	0xbfe906003d2eb94c	-0.7819825358363146
41	0xbfe91d5325f35ac4	-0.7848296872351388
42	0x3fe9244f6b5168dc	0.7856824012808619
43	0x3fe92ff8dfb3b998	0.787105976980274
44	0x3fe9476dca93a134	0.7899693447662117
45	0x3fe96a547fad2dc0	0.794229745262264
46	0x3fe9977fe9014829	0.7997436095122384
47	0x3fe9cddf04f0ac8e	0.806380757950494
48	0x3fea0c6a88095d40	0.8140156418766438
49	0x3fea51c680459516	0.8224823479946817
50	0x3fea9c4dbfc3c233	0.8315800424007364
51	0x3feaea535ef860a8	0.8411042075049595
52	0x3feb3a259b363abb	0.8508480102044226
53	0x3feb89f7d77414ce	0.8605918129038856
54	0x3febd7fd76a8b343	0.8701159780081088
55	0x3fec2284b626e060	0.8792136724141635
56	0x3fec67e0ae631836	0.8876803785322014
57	0x3feca66c317bc8e8	0.8953152624583511
58	0x3fecdccb4d6b2d4d	0.9019524108966067
59	0x3fed09f6b6bf47b5	0.9074662751465811
60	0x3fed2cdd6bd8d442	0.9117266756426334
61	0x3fed445256b8bbde	0.9145900434285712
62	0x3fed4ffbcb1b0c9a	0.9160136191279833
63	0xbfe9244f6b5168dc	-0.7856824012808619
64	0xbfe92ff8dfb3b998	-0.787105976980274
65	0xbfe9476dca93a134	-0.7899693447662117
66	0xbfe96a547fad2dc0	-0.794229745262264
67	0xbfe9977fe9014829	-0.7997436095122384
68	0xbfe9cddf04f0ac8e	-0.806380757950494
69	0xbfea0c6a88095d40	-0.8140156418766438
70	0xbfea51c680459516	-0.8224823479946817
71	0xbfea9c4dbfc3c233	-0.8315800424007364
72	0xbfeaea535ef860a8	-0.8411042075049595
73	0xbfeb3a259b363abb	-0.8508480102044226
74	0xbfeb89f7d77414ce	-0.8605918129038856
75	0xbfebd7fd76a8b343	-0.8701159780081088
76	0xbfec2284b626e060	-0.8792136724141635
77	0xbfec67e0ae631836	-0.8876803785322014
78	0xbfeca66c317bc8e8	-0.8953152624583511
79	0xbfecdccb4d6b2d4d	-0.9019524108966067
80	0xbfed09f6b6bf47b5	-0.9074662751465811
81	0xbfed2cdd6bd8d442	-0.9117266756426334
82	0xbfed445256b8bbde	-0.9145900434285712
83	0xbfed4ffbcb1b0c9a	-0.9160136191279833
84	0x3fed5379edca13a7	0.9164399761508449
85	0x3fed594ea7fb3c04	0.9171517640005509
86	0x3fed65091d6b2fd2	0.9185834478935198
87	0x3fed767c77f7f619	0.920713648141546
88	0x3fed8d122ca2034d	0.9234705802665332
89	0x3feda841ba99b580	0.926789154485661
90	0x3fedc7877c260dd8	0.9306065964487358
91	0x3fedea35784429c4	0.9348399495077548
92	0x3fee0f7918034052	0.9393887967107821
93	0x3fee367be79d8f8d	0.9441508792628938
94	0x3fee5e6505bc7c96	0.9490227806126252
95	0x3fee864e23db699f	0.9538946819623567
96	0x3feead50f375b8da	0.9586567645144684
97	0x3feed2949334cf68	0.9632056117174956
98	0x3feef5428f52eb53	0.9674389647765146
99	0x3fef148850df43ac	0.9712564067395895
100	0x3fef2fb7ded6f5df	0.9745749809587173
101	0x3fef464d93810313	0.9773319130837045
102	0x3fef57c0ee0dc95a	0.9794621133317307
103	0x3fef637b637dbd28	0.9808937972246996
104	0x3fef69501daee585	0.9816055850744055
105	0xbfed5379edca13a7	-0.9164399761508449
106	0xbfed594ea7fb3c04	-0.9171517640005509
107	0xbfed65091d6b2fd2	-0.9185834478935198
108	0xbfed767c77f7f619	-0.920713648141546
109	0xbfed8d122ca2034d	-0.9234705802665332
110	0xbfeda841ba99b580	-0.926789154485661
111	0xbfedc7877c260dd8	-0.9306065964487358
112	0xbfedea35784429c4	-0.9348399495077548
113	0xbfee0f7918034052	-0.9393887967107821
114	0xbfee367be79d8f8d	-0.9441508792628938
115	0xbfee5e6505bc7c96	-0.9490227806126252
116	0xbfee864e23db699f	-0.9538946819623567
117	0xbfeead50f375b8da	-0.9586567645144684
118	0xbfeed2949334cf68	-0.9632056117174956
119	0xbfeef5428f52eb53	-0.9674389647765146
120	0xbfef148850df43ac	-0.9712564067395895
121	0xbfef2fb7ded6f5df	-0.9745749809587173
122	0xbfef464d93810313	-0.9773319130837045
123	0xbfef57c0ee0dc95a	-0.9794621133317307
124	0xbfef637b637dbd28	-0.9808937972246996
125	0xbfef69501daee585	-0.9816055850744055
126	0x3fef6ba434ce3f8d	0.9818898230896466
127	0x3fef7178eeff67ea	0.9826016109393525
128	0x3fef7d33646f5bb8	0.9840332948323214
129	0x3fef8ea6befc21ff	0.9861634950803476
130	0x3fefa53c73a62f33	0.9889204272053348
131	0x3fefc06c019de166	0.9922390014244626
132	0x3fefdfb1c32a39be	0.9960564433875374
133	0x3ff0012fdfa42ad5	1.0002897964465565
134	0x3ff013d1af83b61c	1.0048386436495838
135	0x3ff027531750ddb9	1.0096007262016953
136	0x3ff03b47a660543e	1.0144726275514269
137	0x3ff04f3c356fcac3	1.0193445289011585
138	0x3ff062bd9d3cf260	1.02410661145327
139	0x3ff0755f6d1c7da7	1.0286554586562973
140	0x3ff086b66b2b8b9d	1.0328888117153163
141	0x3ff096594bf1b7c9	1.036706253678391
142	0x3ff0a3f112ed90e2	1.0400248278975188
143	0x3ff0af3bed42977d	1.0427817600225062
144	0x3ff0b7f59a88faa0	1.0449119602705323
145	0x3ff0bdd2d540f487	1.0463436441635012
146	0x3ff0c0bd325988b6	1.0470554320132073
147	0xbfef6ba434ce3f8d	-0.9818898230896466
148	0xbfef7178eeff67ea	-0.9826016109393525
149	0xbfef7d33646f5bb8	-0.9840332948323214
150	0xbfef8ea6befc21ff	-0.9861634950803476
151	0xbfefa53c73a62f33	-0.9889204272053348
152	0xbfefc06c019de166	-0.9922390014244626
153	0xbfefdfb1c32a39be	-0.9960564433875374
154	0xbff0012fdfa42ad5	-1.0002897964465565
155	0xbff013d1af83b61c	-1.0048386436495838
156	0xbff027531750ddb9	-1.0096007262016953
157	0xbff03b47a660543e	-1.0144726275514269
158	0xbff04f3c356fcac3	-1.0193445289011585
159	0xbff062bd9d3cf260	-1.02410661145327
160	0xbff0755f6d1c7da7	-1.0286554586562973
161	0xbff086b66b2b8b9d	-1.0328888117153163
162	0xbff096594bf1b7c9	-1.036706253678391
163	0xbff0a3f112ed90e2	-1.0400248278975188
164	0xbff0af3bed42977d	-1.0427817600225062
165	0xbff0b7f59a88faa0	-1.0449119602705323
166	0xbff0bdd2d540f487	-1.0463436441635012
167	0xbff0c0bd325988b6	-1.0470554320132073
168	0x3fd0caa2949ec759	0.26236786378568905
169	0x3fd0f94866280a48	0.2652150151845132
170	0x3fd1571c11a7a8b7	0.27094175075638866
171	0x3fd1e2b6e60ddaea	0.2794625517484933
172	0x3fd297648b5e448c	0.29049028024844215
173	0x3fd370e0fb1bd622	0.3037645771249534
174	0x3fd46b0f077e98e8	0.3190343449772528
175	0x3fd5807ee86f7840	0.3359677572133286
176	0x3fd6aa9be6682cb3	0.3541631460254379
177	0x3fd7e2b2633aa688	0.3732114762338843
178	0x3fd921fb54320ed4	0.3926990816328104
179	0x3fda61444529771f	0.4121866870317365
180	0x3fdb995ac1fbf0f5	0.4312350172401829
181	0x3fdcc377bff4a568	0.44943040605229223
182	0x3fddd8e7a0e584bf	0.466363818288368
183	0x3fded315ad484786	0.4816335861406674
184	0x3fdfac921d05d91c	0.4949078830171787
185	0x3fe0309fe12b215f	0.5059356115171275
186	0x3fe0766d4b5e3a79	0.5144564125092322
187	0x3fe0a557211e09b0	0.5201831480811077
188	0x3fe0bcaa09e2ab28	0.5230302994799318
189	0xbfd0caa2949ec759	-0.26236786378568905
190	0xbfd0f94866280a48	-0.2652150151845132
191	0xbfd1571c11a7a8b7	-0.27094175075638866
192	0xbfd1e2b6e60ddaea	-0.2794625517484933
193	0xbfd297648b5e448c	-0.29049028024844215
194	0xbfd370e0fb1bd622	-0.3037645771249534
195	0xbfd46b0f077e98e8	-0.3190343449772528
196	0xbfd5807ee86f7840	-0.3359677572133286
197	0xbfd6aa9be6682cb3	-0.3541631460254379
198	0xbfd7e2b2633aa688	-0.3732114762338843
199	0xbfd921fb54320ed4	-0.3926990816328104
200	0xbfda61444529771f	-0.4121866870317365
201	0xbfdb995ac1fbf0f5	-0.4312350172401829
202	0xbfdcc377bff4a568	-0.44943040605229223
203	0xbfddd8e7a0e584bf	-0.466363818288368
204	0xbfded315ad484786	-0.4816335861406674
205	0xbfdfac921d05d91c	-0.4949078830171787
206	0xbfe0309fe12b215f	-0.5059356115171275
207	0xbfe0766d4b5e3a79	-0.5144564125092322
208	0xbfe0a557211e09b0	-0.5201831480811077
209	0xbfe0bcaa09e2ab28	-0.5230302994799318
210	0x3f32a0b8fad04200	0.00028423801524105063
211	0x3f5bfb1703558800	0.001707813714653117
212	0x3f72b93b30c92fd8	0.004571181500590847
213	0x3f82164adec7bb20	0.00883158199664319
214	0x3f8d612533ce5548	0.014345446246617613
215	0x3f957c7617d3b74e	0.020982594684873228
216	0x3f9d4de67ae9cd7c	0.028617478611022915
217	0x3fa2fcb2c1386422	0.037084184729060846
218	0x3fa7a526b91b35eb	0.046181879135115476
219	0x3fac8580ac651d42	0.055706044239338684
220	0x3fb0c15238215f39	0.06544984693880175
221	0x3fb33fe41a102fce	0.07519364963826478
222	0x3fb5b01113b5237a	0.08471781474248799
223	0x3fb8044b0fa68c5f	0.09381550914854263
224	0x3fba2f2ad1884b0e	0.10228221526658052
225	0x3fbc2386ea4dd09c	0.10991709919273024
226	0x3fbdd67fc9c8f3c8	0.11655424763098587
227	0x3fbf3fdb1469c70b	0.12206811188096027
228	0x3fc02b885e9b15ba	0.12632851237701265
229	0x3fc0895c0a1ab429	0.12919188016295038
230	0x3fc0b801dba3f718	0.13061545586236245
231	0xbf32a0b8fad04200	-0.00028423801524105063
232	0xbf5bfb1703558800	-0.001707813714653117
233	0xbf72b93b30c92fd8	-0.004571181500590847
234	0xbf82164adec7bb20	-0.00883158199664319
235	0xbf8d612533ce5548	-0.014345446246617613
236	0xbf957c7617d3b74e	-0.020982594684873228
237	0xbf9d4de67ae9cd7c	-0.028617478611022915
238	0xbfa2fcb2c1386422	-0.037084184729060846
239	0xbfa7a526b91b35eb	-0.046181879135115476
240	0xbfac8580ac651d42	-0.055706044239338684
241	0xbfb0c15238215f39	-0.06544984693880175
242	0xbfb33fe41a102fce	-0.07519364963826478
243	0xbfb5b01113b5237a	-0.08471781474248799
244	0xbfb8044b0fa68c5f	-0.09381550914854263
245	0xbfba2f2ad1884b0e	-0.10228221526658052
246	0xbfbc2386ea4dd09c	-0.10991709919273024
247	0xbfbdd67fc9c8f3c8	-0.11655424763098587
248	0xbfbf3fdb1469c70b	-0.12206811188096027
249	0xbfc02b885e9b15ba	-0.12632851237701265
250	0xbfc0895c0a1ab429	-0.12919188016295038
251	0xbfc0b801dba3f718	-0.13061545586236245
252	0x3fc0caa2949ec759	0.13118393189284452
253	0x3fc0f94866280a48	0.1326075075922566
254	0x3fc1571c11a7a8b7	0.13547087537819433
255	0x3fc1e2b6e60ddaea	0.13973127587424666
